Models/generator_4.pt (torch_old, 19834 bytes, 9 tensors)

weight_ih_l0 f4 [20, 7]
-0.3596294 -0.13629648 0.066206686 0.108562306 -0.08525267 -0.00095673115 -0.42776668 -0.3319167
0.13293268 -0.40197855 0.06886423 -0.42500964 0.18011068 0.04530613 0.1395614 -0.27035016
-0.33227584 -0.40333912 -0.3115813 -0.38720292 -0.009372709 -0.35991475 0.34664184 0.03369017
-0.020340752 -0.29220715 -0.28211853 0.150556 0.367094 0.1801725 -0.10675967 -0.42028448
0.024512185 -0.055633698 -0.087737605 0.22665264 -0.09976563 -0.3136519 -0.3245717 -0.17530593
-0.29736364 0.13469751 -0.22817159 -0.41642377 0.30078715 -0.2926944 -0.35434687 -0.34264094
0.10774739 0.25359765 -0.22582094 0.035433814 -0.28856915 0.28997526 -0.15099242 0.3717158
-0.36849985 0.12948604 0.2506316 0.3286327 0.1065293 0.0944509 -0.07415988 0.2916194
-0.4148176 -0.27785146 0.11438475 0.26639628 0.011762315 -0.43852136 0.25808415 0.2909576
0.018221615 0.060189757 0.0081828805 -0.4468392 0.32448798 0.035291243 -0.43209115 -0.37728637
-0.3591959 -0.054728415 -0.32831022 0.14487915 0.38562495 -0.24859904 -0.21969151 0.22379263
-0.36906224 -0.06012807 0.35897863 0.24674791 -0.15436724 -0.017919315 0.071534485 0.19735907
0.26684287 0.104808085 -0.093069114 0.4036183 -0.08878634 -0.00434444 0.33949405 0.41135985
0.09396732 -0.12173812 0.11963604 -0.16525543 -0.16307239 0.40408537 0.17471299 -0.4033549
-0.19421446 -0.30966946 -0.35956055 0.0069287447 -0.30616674 -0.11631842 0.21722676 0.3934989
0.38824913 -0.3659978 -0.31162658 0.11283618 0.16727343 -0.22959091 -0.16311882 0.018685095
0.34710988 -0.2982276 -0.20493013 -0.44171995 0.036457248 0.3254344 0.056312826 0.10148032
-0.265595 -0.1966478 0.37373224 0.43028706
00000000: 5821 b8be 4e91 0bbe 5f97 873d ea55 de3d
00000010: f498 aebd 24cd 7aba 3c04 dbbe fcf0 a9be
00000020: 811f 083e 22d0 cdbe b008 8d3d dd9a d9be
00000030: ef6e 383e ec92 393d 2fe9 0e3e 566b 8abe
00000040: 0f20 aabe 7782 cebe 9687 9fbe 763f c6be
00000050: fe8f 19bc bf46 b8be 0a7b b13e b4fe 093d
00000060: a6a1 a6bc 2d9c 95be d771 90be 5a2b 1a3e
00000070: bff3 bb3e 247f 383e d0a4 dabd 872f d7be
00000080: c7cd c83c 29e0 63bd c6af b3bd a117 683e
00000090: ec51 ccbd fb96 a0be 432e a6be 6683 33be
000000a0: 0c40 98be 25ee 093e d0a5 69be 7f35 d5be
000000b0: c600 9a3e 0adc 95be f46c b5be a26e afbe
000000c0: aaaa dc3d 8dd7 813e 9b3d 67be 0c23 113d
000000d0: 56bf 93be a377 943e c29d 1abe 8951 be3e
000000e0: 03ac bcbe fd97 043e c952 803e 8c42 a83e
000000f0: 092c da3d 796f c13d 23e1 97bd 234f 953e
00000100: f962 d4be 8c42 8ebe 8d42 ea3d 1865 883e
00000110: bab6 403c df85 e0be 9b23 843e 65f8 943e
00000120: 7f45 953c 8989 763d 7d11 063c 1cc8 e4be
00000130: 4a23 a63e 8d8d 103d 0d3b ddbe ae2b c1be
00000140: 86e8 b7be e72a 60bd 4718 a8be 335b 143e
00000150: a270 c53e bf90 7ebe d0f6 60be e529 653e
00000160: baf5 bcbe da48 76bd 0ccc b73e 7cab 7c3e
00000170: 7212 1ebe 87cb 92bc ac80 923d 7f18 4a3e
00000180: a19f 883e 9fa5 d63d 059b bebd 0fa7 ce3e
00000190: 9dd5 b5bd ce5b 8ebb 2ad2 ad3e c29d d23e
000001a0: f071 c03d d651 f9bd bd03 f53d b838 29be
000001b0: 73fc 26be 47e4 ce3e f6e7 323e 8984 cebe
000001c0: 28e0 46be ff8c 9ebe 5218 b8be 860a e33b
000001d0: e3c1 9cbe 5a38 eebd b170 5e3e b078 c93e
000001e0: 97c8 c63e 1064 bbbe 858d 9fbe a816 e73d
000001f0: ba49 2b3e e119 6bbe 9f08 27be 7c11 993c
00000200: 63b8 b13e 4ab1 98be 34d9 51be 1e29 e2be
00000210: 3254 153d 569f a63e 47a8 663d ead4 cf3d
00000220: 11fc 87be 0a5e 49be d559 bf3e 964e dc3e

weight_hh_l0 f4 [20, 5]
0.41601145 0.14091744 0.26289338 -0.17032346 -0.16227017 -0.25321892 -0.3114353 0.13892795
-0.15832184 -0.25667125 0.3262254 -0.3327569 0.005582646 -0.17479458 0.0038649421 -0.3364613
0.36650205 0.44111928 -0.1543212 0.3136377 0.16467425 0.3401641 0.0638965 0.33338705
-0.3867776 0.3084555 0.045494244 0.19258893 -0.31912133 0.015774524 0.33563095 0.23597568
0.29640618 -0.050918225 -0.42100585 -0.2020448 -0.012093013 0.22906649 0.15827462 -0.42754078
-0.0804842 0.1713225 -0.18707022 0.10371588 -0.38395783 0.2916296 -0.44036275 -0.4309476
-0.14110868 -0.19869117 -0.30519497 -0.062260434 0.37511286 0.34612843 -0.069977626 -0.08214289
-0.02617318 -0.38179824 -0.4235268 0.08204364 -0.3129275 -0.009473961 -0.29284757 0.2655191
-0.3715862 0.13517681 0.1795326 0.28750685 0.24876556 -0.24952777 -0.17013024 0.26609197
0.026562963 0.046237618 -0.12632173 -0.20690003 -0.12865336 -0.12805383 -0.31014028 0.23295678
-0.07495306 0.24509475 0.200248 0.070234634 -0.06907216 0.3650134 0.41650167 0.37505013
0.24927174 -0.040575873 0.178278 0.09712192 -0.36086565 -0.30140242 0.29239637 -0.18752235
-0.17562059 0.44684073 0.25769216 -0.031340014
00000000: 74ff d43e a94c 103e f699 863e 4669 2ebe
00000010: 272a 26be e9a5 81be 7374 9fbe 2143 0e3e
00000020: 1f1f 22be 6a6a 83be 0407 a73e 1d5f aabe
00000030: a1ee b63b 5afd 32be f84a 7d3b a844 acbe
00000040: 28a6 bb3e 63da e13e 6006 1ebe 1f95 a03e
00000050: 5ea0 283e fd29 ae3e 2bdc 823d b5b1 aa3e
00000060: b707 c6be e1ed 9d3e 2c58 3a3d 0836 453e
00000070: df63 a3be 9339 813c d2d7 ab3e 9ca3 713e
00000080: 8dc2 973e a18f 50bd 148e d7be d5e4 4ebe
00000090: c621 46bc 6890 6a3e be12 223e a0e6 dabe
000000a0: e6d4 a4bd 2a6f 2f3e 568f 3fbe fe68 d43d
000000b0: 1f96 c4be 7a50 953e 3a77 e1be 2aa5 dcbe
000000c0: cb7e 10be b375 4bbe 8442 9cbe cc04 7fbd
000000d0: cb0e c03e bf37 b13e 6e50 8fbd 883a a8bd
000000e0: 2369 d6bc 0f7b c3be 81d8 d8be 7f06 a83d
000000f0: 0938 a0be ac38 1bbc 1ef0 95be 1ff2 873e
00000100: 8c40 bebe ca6b 0a3e 65d7 373e 1934 933e
00000110: 66bc 7e3e 3584 7fbe 9f36 2ebe 353d 883e
00000120: 929a d93c a863 3d3d 7c5a 01be 9add 53be
00000130: b5bd 03be 8b20 03be b5ca 9ebe 398c 6e3e
00000140: fd80 99bd 1efa 7a3e d00d 4d3e 2dd7 8f3d
00000150: b475 8dbd 09e3 ba3e b53f d53e 9206 c03e
00000160: 1741 7f3e e332 26bd 828e 363e dbe7 c63d
00000170: 62c3 b8be 6b51 9abe fab4 953e dc05 40be
00000180: e2d5 33be 4fc8 e43e 3af0 833e 635e 00bd

bias_ih_l0 f4 [20]
-0.027744424 -0.2696845 0.40025374 0.4280626 0.17949028 -0.3232547 -0.31546783 -0.016811514
0.030976066 0.15244403 0.16771328 0.42990428 -0.0052684858 -0.35482624 -0.12750857 -0.4088894
-0.24666013 0.051997706 0.3992182 -0.24143857
00000000: 4648 e3bc 1614 8abe 0fee cc3e 052b db3e
00000010: 4dcc 373e a481 a5be 0085 a1be 4db8 89bc
00000020: 85c1 fd3c 4a1a 1c3e 08bd 2b3e 6a1c dc3e
00000030: 43a3 acbb c9ab b5be 9b91 02be f459 d1be
00000040: 7994 7cbe 8cfb 543d 5466 cc3e ac3b 77be

bias_hh_l0 f4 [20]
-0.32750723 -0.39423272 0.28109035 -0.2311442 0.25598994 -0.12763275 -0.32340005 -0.014134255
0.046134274 0.18410471 0.19192475 -0.31776494 -0.007901282 -0.10085384 0.022526335 -0.23462442
-0.39144653 0.35677576 0.40670162 -0.23168284
00000000: 07af a7be dfd8 c9be 13eb 8f3e 11b1 6cbe
00000010: 1d11 833e 29b2 02be b194 a5be 5d93 67bc
00000020: 4bf7 3c3d f285 3c3e ec87 443e 16b2 a2be
00000030: 6174 01bc 758c cebd 2689 b83c 6241 70be
00000040: ae6b c8be 50ab b63e 323b d03e 443e 6dbe

weight f4 [2, 5]
0.26411712 -0.35017872 -0.3983378 -0.040860936 -0.44456658 0.2915022 -0.36241746 0.24304067
0.3210087 -0.33031017
00000000: 5c3a 873e a04a b3be eff2 cbbe cc5d 27bd
00000010: 3b9e e3be c73f 953e c88e b9be a7df 783e
00000020: 415b a43e 6a1e a9be

bias f4 [2]
0.34942028 -0.22514446
00000000: 37e7 b23e 458c 66be

_embeddings_tensor f4 [26, 2]
1.0 0.0 0.28692287 0.9579537 -0.8353505 0.54971766 -0.76628524 -0.6425006
0.39562103 -0.9184139 0.99331063 0.11547268 0.17438607 0.9846774 -0.89324 0.44958022
-0.686968 -0.72668767 0.4990263 -0.86658686 0.9733321 0.22940049 0.0595162 0.99822736
-0.939179 0.34342802 -0.5984601 -0.80115265 0.5957552 -0.80316603 0.9403317 0.34025922
-0.056149915 0.9984223 -0.9725531 0.23268119 -0.5019455 -0.8648992 0.68451375 -0.7289999
0.89475083 0.44656575 -0.17106481 0.9852598 -0.99291563 0.1188214 -0.3987156 -0.9170746
0.7641144 -0.64508075 0.8371994 0.54689777
00000000: 0000 803f 0000 0000 8ee7 923e 743c 753f
00000010: 88d9 55bf 4cba 0c3f 452b 44bf eb7a 24bf
00000020: d78e ca3e 2c1d 6bbf 9b49 7e3f f17c ec3d
00000030: 4392 323e d113 7c3f 60ab 64bf 612f e63e
00000040: 23dd 2fbf 3408 3abf 6080 ff3e a3d8 5dbf
00000050: 4b2c 793f f6e7 6a3e 42c7 733d d48b 7f3f
00000060: 096e 70bf ccd5 af3e ae34 19bf 5718 4dbf
00000070: 6a83 183f 4a9c 4dbf 94b9 703f 7536 ae3e
00000080: 74fd 65bd 9b98 7f3f 3df9 78bf fa43 6e3e
00000090: 807f 00bf 096a 5dbf 4b3c 2f3f bd9f 3abf
000000a0: 640e 653f 44a4 e43e 9d2b 2fbe fc39 7c3f
000000b0: b82f 7ebf a258 f33d 7324 ccbe 67c5 6abf
000000c0: 009d 433f 0324 25bf b352 563f 7e01 0c3f

hidden f4 [1, 10, 5]
0.029091012 -0.028800553 0.06943799 0.11300108 0.10500742 0.063487105 -0.01601761 0.24649552
0.11815065 0.10939659 0.08086247 -0.0325653 0.32332042 0.09464128 0.013056298 0.054275364
-0.03396571 0.2118177 0.06642528 -0.08216745 0.054280344 -0.04303212 0.31379062 0.119318776
0.063215494 0.064156346 -0.021617737 0.23387997 0.09442492 0.07025324 0.06008033 -0.0223498
0.20188469 0.11667479 0.023892626 0.07878951 -0.04442903 0.33684272 0.07365821 -0.080103874
0.086017914 -0.018517995 0.24434118 0.10184487 -0.0070998888 0.05644906 -0.0061747376 0.25578344
0.066074476 -0.014830434
00000000: 4650 ee3c 23ef ebbc 8135 8e3d 1c6d e73d
00000010: 210e d73d 8705 823d 5d37 83bc 5269 7c3e
00000020: f8f8 f13d 520b e03d 399b a53d 3163 05bd
00000030: 418a a53e 4ad3 c13d 15ea 553c d84f 5e3d
00000040: a11f 0bbd bde6 583e fa09 883d 6847 a8bd
00000050: 1155 5e3d 7342 30bd 2aa9 a03e 675d f43d
00000060: 2077 813d 6764 833d ae17 b1bc 3b7e 6f3e
00000070: da61 c13d eee0 8f3d cb16 763d ee16 b7bc
00000080: dcba 4e3e 31f3 ee3d 78ba c33c 655c a13d
00000090: 37fb 35bd a676 ac3e 1eda 963d 800d a4bd
000000a0: 292a b03d 0db3 97bc 9334 7a3e 0b94 d03d
000000b0: 2fa6 e8bb 2137 673d 7455 cabb 0cf6 823e
000000c0: 0e52 873d 59fb 72bc

cell_state f4 [1, 10, 5]
0.08727889 -0.13320807 0.122888826 0.21938506 0.21813598 0.21658784 -0.05056368 0.44502008
0.23134646 0.21791695 0.2792732 -0.11135225 0.55987465 0.19486707 0.026866814 0.26963896
-0.12160788 0.45230842 0.10819645 -0.15449645 0.24303234 -0.13833568 0.60856336 0.24200557
0.10249228 0.21328722 -0.073784135 0.37960505 0.18851662 0.12710866 0.25132233 -0.08018775
0.3918931 0.18642405 0.043100454 0.3064555 -0.1608913 0.58310413 0.13621928 -0.15037957
0.3280926 -0.0698902 0.45396402 0.17519066 -0.015139246 0.22726707 -0.017776014 0.45877406
0.1123988 -0.027870707
00000000: 46bf b23d b267 08be 23ad fb3d 7aa6 603e
00000010: 0a5f 5f3e 34c9 5d3e dc1b 4fbd acd9 e33e
00000020: 16e6 6c3e 9f25 5f3e e6fc 8e3e a60c e4bd
00000030: f253 0f3f 3c8b 473e cb17 dc3c 1e0e 8a3e
00000040: 8d0d f9bd f894 e73e 1a96 dd3d 5134 1ebe
00000050: 78dd 783e dea7 0dbe cfca 1b3f 4fd0 773e
00000060: 79e7 d13d f767 5a3e 231c 97bd 985b c23e
00000070: 800a 413e c628 023e 52ad 803e 7a39 a4bd
00000080: 36a6 c83e f2e5 3e3e 1a8a 303d bce7 9c3e
00000090: b0c0 24be 5046 153f 117d 0b3e 1afd 19be
000000a0: c1fb a73e 9822 8fbd f96d e83e 2e65 333e
000000b0: 9a0a 78bc b3b8 683e 019f 91bc 6fe4 ea3e
000000c0: 5831 e63d 1c51 e4bc
