Models/generator_3.pt (torch_old, 19474 bytes, 9 tensors)

weight_ih_l0 f4 [20, 7]
-0.30614612 0.40653118 0.23924613 0.2813807 0.43388125 -0.30019778 -0.25011697 -0.11873495
0.14272273 0.40315297 -0.0660166 -0.29975 -0.22764969 -0.123384 -0.35878038 -0.33856055
0.14128925 -0.31306556 -0.18944526 0.06588974 -0.42257333 -0.055016704 -0.342605 0.32354704
0.059744194 -0.2340628 0.15764171 0.33171573 0.40543076 0.1653009 0.42767447 -0.10645554
0.15979217 0.23784292 -0.0018652882 -0.06874599 -0.20853718 0.117984965 -0.3735309 0.21804322
0.37767723 0.11098236 -0.13290378 -0.16106384 -0.31734467 0.3434665 0.4205471 0.114465676
0.17232333 -0.21358457 -0.16165656 -0.030684462 0.13801308 0.27125832 0.43802285 0.41017553
0.065167315 0.34863606 -0.12405467 0.11826692 0.10206126 -0.28048536 -0.08955676 0.13294548
0.30881444 0.28366992 -0.27120677 0.31616262 0.33627194 0.43382636 -0.00711625 0.33008385
-0.14748642 -0.1974743 -0.17639872 -0.050880007 -0.37441432 -0.29443207 0.37784198 -0.41875696
-0.043602537 0.1950642 -0.40013698 -0.1177217 0.049663775 -0.024575196 0.20002268 0.29503855
-0.025639493 -0.067478485 -0.32738456 0.13389027 0.30838174 0.09587251 -0.40902656 0.0055681155
-0.023214953 -0.43491003 0.0021724026 -0.10780859 0.09198384 0.2095481 0.31217176 -0.21841797
-0.20918112 0.119546495 -0.033814706 0.34550026 0.3093841 -0.12220061 0.048661426 -0.23395357
-0.25338152 0.18856339 -0.12851378 0.11957878 -0.08284562 0.18226595 0.40638176 -0.12108091
-0.177688 -0.061974615 0.34406662 0.20325534 0.19330765 0.22392364 -0.08462524 0.016291007
0.412403 0.42111167 0.013359205 -0.044699494 0.15650938 0.36473048 0.28545532 0.2905323
-0.27258268 -0.22729613 0.42248031 -0.40043813
00000000: 2fbf 9cbe db24 d03e f0fc 743e 2211 903e
00000010: af25 de3e 86b3 99be 550f 80be 4f2b f3bd
00000020: e825 123e 116a ce3e b633 87bd d578 99be
00000030: 001d 69be c0b0 fcbd 10b2 b7be cf57 adbe
00000040: 21ae 103e 214a a0be f0fd 41be 33f1 863d
00000050: 885b d8be 3259 61bd ec69 afbe f5a7 a53e
00000060: 54b6 743d 29ae 6fbe d46c 213e a5d6 a93e
00000070: 9f94 cf3e a444 293e 26f8 da3e 5d05 dabd
00000080: 8fa0 233e 188d 733e b07c f4ba b3ca 8cbd
00000090: c58a 55be 1aa2 f13d 713f bfbe b946 5f3e
000000a0: e95e c13e b84a e33d ee17 08be ebed 24be
000000b0: 007b a2be d7da af3e f351 d73e fb6c ea3d
000000c0: 8775 303e eab5 5abe 4c89 25be fb5d fbbc
000000d0: 4d53 0d3e 5fe2 8a3e 8844 e03e 8702 d23e
000000e0: 7176 853d 6d80 b23e 6010 febd ed35 f23d
000000f0: 7e05 d13d c79b 8fbe 8969 b7bd dc22 083e
00000100: ed1c 9e3e 2f3d 913e 9ddb 8abe 11e0 a13e
00000110: d62b ac3e 7d1e de3e 6f2f e9bb c000 a93e
00000120: ae06 17be b436 4abe dea1 34be 8e67 50bd
00000130: 3cb3 bfbe cdbf 96be 8174 c13e 5067 d6be
00000140: 9398 32bd e9be 473e c1de ccbe 1318 f1bd
00000150: 3e6c 4b3d ec51 c9bc bfd2 4c3e 4b0f 973e
00000160: ea09 d2bc 2932 8abd f39e a7be 881a 093e
00000170: 36e4 9d3e ce58 c43d ee6b d1be bd74 b63b
00000180: 492d bebc 87ac debe de5e 0e3b c0ca dcbd
00000190: 0662 bc3d c793 563e fad4 9f3e f6a8 5fbe
000001a0: 9333 56be cbd4 f43d 4a81 0abd 69e5 b03e
000001b0: 9867 9e3e 5044 fabd 3451 473d 8691 6fbe
000001c0: 39bb 81be c316 413e 1e99 03be b8e5 f43d
000001d0: f7aa a9bd eda3 3a3e 4511 d03e 45f9 f7bd
000001e0: d8f3 35be 18d9 7dbd 8029 b03e 2b22 503e
000001f0: 71f2 453e 3d4c 653e ff4f adbd b874 853c
00000200: 7c26 d33e f39b d73e 91e0 5a3c d116 37bd
00000210: ff43 203e f4bd ba3e 3327 923e a6c0 943e
00000220: f58f 8bbe 51c0 68be 574f d83e 3a06 cdbe

weight_hh_l0 f4 [20, 5]
-0.3420391 0.20076074 -0.050678037 0.27665737 -0.4080029 -0.19315739 -0.042396814 -0.17517565
0.23408559 0.35437158 -0.20530733 0.2197897 -0.28943396 0.35960862 -0.3472128 0.18321252
0.1668051 -0.4499726 -0.21911228 -0.024026962 -0.35002103 -0.4186804 0.33857086 -0.40545198
0.14012122 0.22418274 0.2372901 0.13602598 -0.13927434 -0.16038656 0.23428316 0.2961317
-0.40240204 0.09121949 -0.35399288 0.44226485 0.34747967 0.26869014 -0.4326273 0.13975476
0.17053887 -0.30411366 0.06014096 0.078933306 -0.2729553 -0.049721148 -0.26162517 -0.2782117
0.117380336 0.23841532 0.10236548 0.08960101 -0.43184203 0.22956024 -0.39326164 0.15377527
0.19694099 0.3313545 0.09969724 0.32261983 0.064195484 -0.22368819 -0.18875407 -0.28416047
0.37429556 -0.21919434 0.35964197 0.2269719 -0.31942862 -0.36618257 0.41735473 0.2056647
-0.40598863 0.40395534 0.019116305 -0.2024934 -0.033339813 -0.095914215 -0.072390534 0.08774148
0.41970673 0.4036583 -0.2738006 0.02966068 -0.30183157 -0.25813046 -0.082876004 0.21353473
-0.31299025 0.34068862 -0.15647924 -0.27094284 0.40108556 -0.42383003 -0.370993 0.12332516
0.31650117 0.43750823 -0.08504616 0.18792062
00000000: c01f afbe 3994 4d3e c693 4fbd 09a6 8d3e
00000010: c2e5 d0be 0dcb 45be 48a8 2dbd 3f61 33be
00000020: 22b4 6f3e 3170 b53e 163c 52be 8d10 613e
00000030: b030 94be 9f1e b83e e0c5 b1be 109c 3b3e
00000040: f5ce 2a3e cf62 e6be f85e 60be 31d4 c4bc
00000050: f535 b3be 475d d6be 2959 ad3e 6797 cfbe
00000060: f07b 0f3e 2990 653e 2dfc 723e 654a 0b3e
00000070: ef9d 0ebe 603c 24be ede7 6f3e 939e 973e
00000080: a407 cebe 49d1 ba3d 8e3e b5be 8a70 e23e
00000090: dbe8 b13e c191 893e 5381 ddbe df1b 0f3e
000000a0: bea1 2e3e c9b4 9bbe 5e56 763d c9a7 a13d
000000b0: ccc0 8bbe 67a8 4bbd bcf3 85be c471 8ebe
000000c0: 1a65 f03d 2523 743e fea4 d13d bc80 b73d
000000d0: 661a ddbe d711 6b3e 9759 c9be 4477 1d3e
000000e0: e6aa 493e 4ca7 a93e 112e cc3d 6d2e a53e
000000f0: ec78 833d 840e 65be bf48 41be 7b7d 91be
00000100: aba3 bf3e 7b74 60be fe22 b83e 526b 683e
00000110: 268c a3be 487c bbbe 85af d53e c499 523e
00000120: bedd cfbe 3cd3 ce3e cc99 9c3c 6e5a 4fbe
00000130: 548f 08bd ac6e c4bd 7d41 94bd ceb1 b33d
00000140: cde3 d63e 4dac ce3e 982f 8cbe f4fa f23c
00000150: ab89 9abe ad29 84be e5ba a9bd d9a8 5a3e
00000160: 4240 a0be bd6e ae3e 183c 20be 05b9 8abe
00000170: 165b cd3e 4000 d9be cbf2 bdbe e791 fc3d
00000180: 710c a23e 1401 e03e ae2c aebd 436e 403e

bias_ih_l0 f4 [20]
-0.17702748 -0.0037543538 -0.2250215 0.4002056 -0.35460356 0.37590587 -0.27514413 0.028704938
-0.22057645 -0.1812863 -0.34244606 0.08551354 -0.33184978 -0.15973881 0.12533672 -0.2391838
0.17665763 -0.386857 -0.07621844 0.13407752
00000000: b146 35be 9b0b 76bb 096c 66be c0e7 cc3e
00000010: 998e b5be bc76 c03e b1df 8cbe 9e26 eb3c
00000020: cbde 61be 1ea3 39be 1755 afbe b921 af3d
00000030: 37e8 a9be 9292 23be 4558 003e 99ec 74be
00000040: bde5 343e 1f12 c6be 6a18 9cbd 9e4b 093e

bias_hh_l0 f4 [20]
-0.18518512 0.37011623 -0.1738508 -0.3446632 0.08815818 -0.2666911 0.1814574 -0.2786419
0.22514096 -0.08470033 0.28171664 0.32068104 -0.43430373 0.07425753 -0.32745445 0.23898718
-0.15469705 -0.03931188 0.0070880796 0.3391489
00000000: 2ba1 3dbe e07f bd3e f205 32be b277 b0be
00000010: 478c b43d bc8b 88be f8cf 393e 27aa 8ebe
00000020: 5a8b 663e 5e77 adbd 2a3d 903e 4e30 a43e
00000030: 0f5d debe 5514 983d 1ca8 a7be 0eb9 743e
00000040: e768 1ebe 7e05 21bd 1f43 e83b eda4 ad3e

weight f4 [2, 5]
-0.33829778 -0.018477269 -0.014274404 -0.34334502 0.26862118 0.25847965 -0.34444726 0.20519932
-0.12975034 -0.114325374
00000000: 5e35 adbe a45d 97bc 31df 69bc ebca afbe
00000010: b788 893e 7257 843e 645b b0be c51f 523e
00000020: 46dd 04be 6c23 eabd

bias f4 [2]
-0.3571989 0.44623044
00000000: c6e2 b6be 5178 e43e

_embeddings_tensor f4 [26, 2]
1.0 0.0 0.28692287 0.9579537 -0.8353505 0.54971766 -0.76628524 -0.6425006
0.39562103 -0.9184139 0.99331063 0.11547268 0.17438607 0.9846774 -0.89324 0.44958022
-0.686968 -0.72668767 0.4990263 -0.86658686 0.9733321 0.22940049 0.0595162 0.99822736
-0.939179 0.34342802 -0.5984601 -0.80115265 0.5957552 -0.80316603 0.9403317 0.34025922
-0.056149915 0.9984223 -0.9725531 0.23268119 -0.5019455 -0.8648992 0.68451375 -0.7289999
0.89475083 0.44656575 -0.17106481 0.9852598 -0.99291563 0.1188214 -0.3987156 -0.9170746
0.7641144 -0.64508075 0.8371994 0.54689777
00000000: 0000 803f 0000 0000 8ee7 923e 743c 753f
00000010: 88d9 55bf 4cba 0c3f 452b 44bf eb7a 24bf
00000020: d78e ca3e 2c1d 6bbf 9b49 7e3f f17c ec3d
00000030: 4392 323e d113 7c3f 60ab 64bf 612f e63e
00000040: 23dd 2fbf 3408 3abf 6080 ff3e a3d8 5dbf
00000050: 4b2c 793f f6e7 6a3e 42c7 733d d48b 7f3f
00000060: 096e 70bf ccd5 af3e ae34 19bf 5718 4dbf
00000070: 6a83 183f 4a9c 4dbf 94b9 703f 7536 ae3e
00000080: 74fd 65bd 9b98 7f3f 3df9 78bf fa43 6e3e
00000090: 807f 00bf 096a 5dbf 4b3c 2f3f bd9f 3abf
000000a0: 640e 653f 44a4 e43e 9d2b 2fbe fc39 7c3f
000000b0: b82f 7ebf a258 f33d 7324 ccbe 67c5 6abf
000000c0: 009d 433f 0324 25bf b352 563f 7e01 0c3f

hidden f4 [1, 1, 5]
-0.11880572 0.3260094 -0.28680366 -0.20488839 -0.11345193
00000000: 6a50 f3bd b4ea a63e eed7 92be 43ce 51be
00000010: 7c59 e8bd

cell_state f4 [1, 1, 5]
-0.22301245 0.5018031 -0.6104458 -0.35520402 -0.20347495
00000000: 605d 64be 2b76 003f 2d46 1cbf 4ddd b5be
00000010: bd5b 50be
