Models/generator_0.pt (torch_old, 19474 bytes, 9 tensors)

weight_ih_l0 f4 [20, 7]
-0.3031745 0.40360224 0.2362639 0.27843946 0.4309258 -0.30299953 -0.25305477 -0.12163224
0.1456607 0.40605038 -0.06308684 -0.29693395 -0.22471681 -0.120499134 -0.36155537 -0.335719
0.14370953 -0.31015292 -0.18691412 0.06876061 -0.41972715 -0.052038334 -0.3455949 0.32059738
0.05682378 -0.2369348 0.15467463 0.32871968 0.40246475 0.16829129 0.4303403 -0.10352184
0.16248928 0.24075855 0.0010236459 -0.065796934 -0.21145302 0.11500452 -0.37637413 0.21514581
0.37478673 0.108092345 -0.1357538 -0.15816593 -0.3145134 0.34641892 0.42325097 0.11740797
0.17508316 -0.21636157 -0.1588135 -0.028262481 0.1409388 0.27380872 0.4408998 0.4130001
0.068096645 0.34567863 -0.12677597 0.115268335 0.09939286 -0.28340358 -0.092430726 0.12996931
0.31179547 0.2865543 -0.26821914 0.31900996 0.33923143 0.43667412 -0.010074824 0.33300292
-0.14455974 -0.19460443 -0.17342095 -0.048016395 -0.37149438 -0.29740107 0.3808359 -0.41580835
-0.040593665 0.197928 -0.39713848 -0.11481555 0.05245176 -0.027424162 0.19750406 0.29212347
-0.028239943 -0.07036286 -0.33021897 0.13094701 0.31135505 0.09870129 -0.4060329 0.008327059
-0.020238023 -0.4320104 0.005065943 -0.11074236 0.08927274 0.20654571 0.30949134 -0.22135328
-0.21198322 0.12253826 -0.036778428 0.34252197 0.30651408 -0.12511922 0.045764104 -0.23693654
-0.25624222 0.1914677 -0.12578157 0.12249696 -0.08014893 0.18519145 0.40921146 -0.12374827
-0.17490697 -0.06008085 0.346771 0.20559096 0.19602183 0.2266596 -0.08164372 0.013289771
0.40957734 0.41823828 0.01048219 -0.04770321 0.1535155 0.36175498 0.28842744 0.2930926
-0.26963583 -0.2246258 0.4253702 -0.39751807
00000000: b039 9bbe f4a4 ce3e 2aef 713e 9e8f 8e3e
00000010: 4ea2 dc3e c122 9bbe 6590 81be 531a f9bd
00000020: 1428 153e d6e5 cf3e ac33 81bd ba07 98be
00000030: 2a1c 66be 40c8 f6bd c91d b9be 5ce3 abbe
00000040: 9728 133e 5dcc 9ebe 6a66 3fbe 5dd2 8c3d
00000050: 7ae6 d6be 2626 55bd d1f1 b0be 5725 a43e
00000060: 0dc0 683d 099f 72be 0763 1e3e f24d a83e
00000070: dc0f ce3e 8d54 2c3e 9055 dc3e 4203 d4bd
00000080: 9763 263e 6989 763e db2b 863a 8bc0 86bd
00000090: 2487 58be 7d87 eb3d 1cb4 c0be 2f4f 5c3e
000000a0: 0ce4 bf3e 855f dd3d 0b03 0bbe 40f6 21be
000000b0: e607 a1be d25d b13e 5ab4 d83e 9773 f03d
000000c0: 0049 333e e38d 5dbe 02a0 22be b886 e7bc
000000d0: 4352 103e a830 8c3e 9ebd e13e c074 d33e
000000e0: 4176 8b3d cafc b03e 8fd1 01be ce11 ec3d
000000f0: 7c8e cb3d 461a 91be 524c bdbd ad16 053e
00000100: a8a3 9f3e 3fb7 923e 0554 89be 4655 a33e
00000110: beaf ad3e c093 df3e e010 25bc 5c7f aa3e
00000120: 7807 14be 6246 47be 4395 31be d7ac 44bd
00000130: 8334 bebe f444 98be ecfc c23e d5e4 d4be
00000140: 8b45 26bd a3ad 4a3e bc55 cbbe 6a24 ebbd
00000150: a8d7 563d a3a8 e0bc 813e 4a3e 3591 953e
00000160: 7457 e7bc 671a 90bd 7612 a9be f916 063e
00000170: ee69 9f3e e723 ca3d 8be3 cfbe 386e 083c
00000180: 36ca a5bc 7830 ddbe 3600 a63b e4cc e2bd
00000190: a0d4 b63d b880 533e a675 9e3e 6faa 62be
000001a0: 2112 59be 57f5 fa3d faa4 16bd 0a5f af3e
000001b0: 6aef 9c3e 411f 00be 2473 3b3d 7e9f 72be
000001c0: 2e32 83be 1c10 443e e2cc 00be b0df fa3d
000001d0: 1f25 a4bd d4a2 3d3e 2a84 d13e bc6f fdbd
000001e0: d01a 33be 5617 76bd f88b b13e 7086 523e
000001f0: f2b9 483e 7419 683e d334 a7bd 57bd 593c
00000200: 1fb4 d13e 5423 d63e 7ebd 2b3c 7164 43bd
00000210: 2b33 1d3e f337 b93e c3ac 933e 3c10 963e
00000220: b50d 8abe 4e04 66be 1fca d93e 7d87 cbbe

weight_hh_l0 f4 [20, 5]
-0.33911136 0.19776155 -0.047721192 0.27954015 -0.40544808 -0.1960038 -0.039585255 -0.17806907
0.23117472 0.3513829 -0.20799395 0.22254215 -0.29224542 0.3567209 -0.3500012 0.186141
0.16385433 -0.446978 -0.21613209 -0.021080669 -0.35297167 -0.41576698 0.3356061 -0.40842265
0.1371757 0.22710262 0.23432973 0.13896015 -0.1363964 -0.15781727 0.23155817 0.29889357
-0.40523517 0.088392116 -0.35699874 0.4396146 0.35023522 0.26588443 -0.4355002 0.13696267
0.17336449 -0.30697986 0.06305461 0.081828855 -0.27000225 -0.052576046 -0.25868294 -0.28116822
0.11444718 0.23547143 0.09942026 0.09259595 -0.43479377 0.22666697 -0.39588186 0.15089089
0.19984125 0.328395 0.0967483 0.3196416 0.066879265 -0.22646816 -0.18592839 -0.28125626
0.3770762 -0.22201388 0.3625244 0.22403616 -0.32234755 -0.36917588 0.42010456 0.20284623
-0.4031147 0.4068152 0.022077098 -0.1995806 -0.03632729 -0.09293884 -0.06949773 0.090313554
0.41696882 0.4064538 -0.2766593 0.02679699 -0.30480054 -0.26026574 -0.080162935 0.21081428
-0.31567207 0.33796844 -0.15366513 -0.27390477 0.40408817 -0.42089027 -0.36801752 0.12049622
0.31945112 0.43455786 -0.087918505 0.18498139
00000000: 01a0 adbe 0182 4a3e 4c77 43bd e31f 8f3e
00000010: e496 cfbe 38b5 48be 2624 22bd bd57 36be
00000020: 11b9 6c3e 76e8 b33e 5efc 54be 17e2 633e
00000030: 31a1 95be 1fa4 b63e 5b33 b3be bf9b 3e3e
00000040: 6ec9 273e 4dda e4be bb51 5dbe 5eb1 acbc
00000050: b4b8 b4be 69df d4be 90d4 ab3e c61c d1be
00000060: c977 0c3e 978d 683e 22f4 6f3e 924b 0e3e
00000070: 7fab 0bbe da9a 21be 961d 6d3e 9408 993e
00000080: fc7a cfbe ed06 b53d 8ac8 b6be 2a15 e13e
00000090: 0852 b33e 0122 883e e2f9 debe f13f 0c3e
000000a0: 7686 313e 772c 9dbe c622 813d e395 a73d
000000b0: bc3d 8abe fb59 57bd 1772 84be 48f5 8fbe
000000c0: 4863 ea3d 6c1f 713e d99c cb3d f2a2 bd3d
000000d0: 4a9d debe 631b 683e 07b1 cabe 2483 1a3e
000000e0: 2fa3 4c3e 6423 a83e f923 c63d 10a8 a33e
000000f0: fff7 883d 45e7 67be 0364 3ebe d200 90be
00000100: 2210 c13e 9b57 63be cc9c b93e bc69 653e
00000110: bd0a a5be 9f04 bdbe f217 d73e ecb6 4f3e
00000120: 0d65 cebe 154a d03e 08db b43c db5e 4cbe
00000130: edcb 14bd b856 bebd d354 8ebd 50f6 b83d
00000140: f07c d53e b61a d03e 4aa6 8dbe 5c85 db3c
00000150: d10e 9cbe 8d41 85be 772c a4bd b3df 573e
00000160: c59f a1be 330a ad3e 645a 1dbe 3f3d 8cbe
00000170: a5e4 ce3e ee7e d7be cb6c bcbe b9c6 f63d
00000180: 198f a33e 5e7e de3e 9e0e b4bd c36b 3d3e

bias_ih_l0 f4 [20]
-0.17998293 -0.000839091 -0.22221677 0.3972199 -0.3516238 0.37297055 -0.27227384 0.031511728
-0.22351988 -0.17830612 -0.33950302 0.08849423 -0.33466503 -0.15678145 0.12242485 -0.24216561
0.17953742 -0.38413265 -0.07921183 0.1370551
00000000: 724d 38be 72f6 5bba cb8c 63be 6860 cb3e
00000010: 0908 b4be fff5 be3e 7a67 8bbe 7112 013d
00000020: 65e2 64be e195 36be 57d3 adbe 763c b53d
00000030: 3759 abbe 518b 20be e1b9 fa3d 43fa 77be
00000040: a8d8 373e 09ad c4be d039 a2bd 2c58 0c3e

bias_hh_l0 f4 [20]
-0.18814057 0.3730315 -0.17104608 -0.34764892 0.09113793 -0.2696264 0.1843277 -0.27583513
0.22219753 -0.081720166 0.28465968 0.32366168 -0.43711898 0.07721488 -0.3303663 0.23600537
-0.15181726 -0.03658753 0.004094688 0.3421265
00000000: eca7 40be fcfd be3e b426 2fbe 0aff b1be
00000010: 86a6 ba3d 790c 8abe 67c0 3c3e 433a 8dbe
00000020: c087 633e e75c a7bd eabe 913e fcb6 a53e
00000030: 0fce dfbe d622 9e3d c625 a9be 64ab 713e
00000040: fc75 1bbe cedc 15bd bc2c 863b 342b af3e

weight f4 [2, 5]
-0.33548874 -0.021396 -0.0113200955 -0.34034264 0.27157962 0.26123452 -0.34732488 0.20811556
-0.1267647 -0.11136273
00000000: 2ec5 abbe aa46 afbc ec77 39bc 6441 aebe
00000010: 7c0c 8b3e 88c0 853e 91d4 b1be 3f1c 553e
00000020: 9bce 01be 2512 e4bd

bias f4 [2]
-0.36016744 0.4432965
00000000: de67 b8be c2f7 e23e

_embeddings_tensor f4 [26, 2]
1.0 0.0 0.28692287 0.9579537 -0.8353505 0.54971766 -0.76628524 -0.6425006
0.39562103 -0.9184139 0.99331063 0.11547268 0.17438607 0.9846774 -0.89324 0.44958022
-0.686968 -0.72668767 0.4990263 -0.86658686 0.9733321 0.22940049 0.0595162 0.99822736
-0.939179 0.34342802 -0.5984601 -0.80115265 0.5957552 -0.80316603 0.9403317 0.34025922
-0.056149915 0.9984223 -0.9725531 0.23268119 -0.5019455 -0.8648992 0.68451375 -0.7289999
0.89475083 0.44656575 -0.17106481 0.9852598 -0.99291563 0.1188214 -0.3987156 -0.9170746
0.7641144 -0.64508075 0.8371994 0.54689777
00000000: 0000 803f 0000 0000 8ee7 923e 743c 753f
00000010: 88d9 55bf 4cba 0c3f 452b 44bf eb7a 24bf
00000020: d78e ca3e 2c1d 6bbf 9b49 7e3f f17c ec3d
00000030: 4392 323e d113 7c3f 60ab 64bf 612f e63e
00000040: 23dd 2fbf 3408 3abf 6080 ff3e a3d8 5dbf
00000050: 4b2c 793f f6e7 6a3e 42c7 733d d48b 7f3f
00000060: 096e 70bf ccd5 af3e ae34 19bf 5718 4dbf
00000070: 6a83 183f 4a9c 4dbf 94b9 703f 7536 ae3e
00000080: 74fd 65bd 9b98 7f3f 3df9 78bf fa43 6e3e
00000090: 807f 00bf 096a 5dbf 4b3c 2f3f bd9f 3abf
000000a0: 640e 653f 44a4 e43e 9d2b 2fbe fc39 7c3f
000000b0: b82f 7ebf a258 f33d 7324 ccbe 67c5 6abf
000000c0: 009d 433f 0324 25bf b352 563f 7e01 0c3f

hidden f4 [1, 1, 5]
-0.12438832 0.29669964 -0.30773756 -0.19079669 -0.14477472
00000000: 4ebf febd 04e9 973e c78f 9dbe 3560 43be
00000010: d33f 14be

cell_state f4 [1, 1, 5]
-0.24398562 0.43628055 -0.66593254 -0.33097517 -0.24672802
00000000: 5ed7 79be 2a60 df3e 8e7a 2abf 9475 a9be
00000010: 45a6 7cbe
